…
  6. CLASS IMBALANCE
============================================================
Ham  count : 3273  | weight: 0.7099
Spam count : 1374  | weight: 1.6910
Saved: class_distribution.png

============================================================
  7. BUILD TRANSFORMER MODEL
============================================================
Model: "SpamTransformer"
┌─────────────────────┬───────────────────┬────────────┬───────────────────┐
│ Layer (type)        │ Output Shape      │    Param # │ Connected to      │
├─────────────────────┼───────────────────┼────────────┼───────────────────┤
│ token_ids           │ (None, 200)       │          0 │ -                 │
│ (InputLayer)        │                   │            │                   │
├─────────────────────┼───────────────────┼────────────┼───────────────────┤
│ pos_embedding       │ (None, 200, 64)   │    524,800 │ token_ids[0][0]   │
│ (PositionalEmbeddi… │                   │            │                   │
├─────────────────────┼───────────────────┼────────────┼───────────────────┤
│ multi_head_attenti… │ (None, 200, 64)   │     16,640 │ pos_embedding[0]… │
│ (MultiHeadAttentio… │                   │            │ pos_embedding[0]… │
├─────────────────────┼───────────────────┼────────────┼───────────────────┤
│ dropout_1 (Dropout) │ (None, 200, 64)   │          0 │ multi_head_atten… │
├─────────────────────┼───────────────────┼────────────┼───────────────────┤
│ add (Add)           │ (None, 200, 64)   │          0 │ pos_embedding[0]… │
│                     │                   │            │ dropout_1[0][0]   │
├─────────────────────┼───────────────────┼────────────┼───────────────────┤
│ layer_normalization │ (None, 200, 64)   │        128 │ add[0][0]         │
│ (LayerNormalizatio… │                   │            │                   │
├─────────────────────┼───────────────────┼────────────┼───────────────────┤
│ dense (Dense)       │ (None, 200, 128)  │      8,320 │ layer_normalizat… │
├─────────────────────┼───────────────────┼────────────┼───────────────────┤
│ dense_1 (Dense)     │ (None, 200, 64)   │      8,256 │ dense[0][0]       │
├─────────────────────┼───────────────────┼────────────┼───────────────────┤
│ dropout_2 (Dropout) │ (None, 200, 64)   │          0 │ dense_1[0][0]     │
├─────────────────────┼───────────────────┼────────────┼───────────────────┤
│ add_1 (Add)         │ (None, 200, 64)   │          0 │ layer_normalizat… │
│                     │                   │            │ dropout_2[0][0]   │
├─────────────────────┼───────────────────┼────────────┼───────────────────┤
│ layer_normalizatio… │ (None, 200, 64)   │        128 │ add_1[0][0]       │
│ (LayerNormalizatio… │                   │            │                   │
├─────────────────────┼───────────────────┼────────────┼───────────────────┤
│ multi_head_attenti… │ (None, 200, 64)   │     16,640 │ layer_normalizat… │
│ (MultiHeadAttentio… │                   │            │ layer_normalizat… │
├─────────────────────┼───────────────────┼────────────┼───────────────────┤
│ dropout_4 (Dropout) │ (None, 200, 64)   │          0 │ multi_head_atten… │
├─────────────────────┼───────────────────┼────────────┼───────────────────┤
│ add_2 (Add)         │ (None, 200, 64)   │          0 │ layer_normalizat… │
│                     │                   │            │ dropout_4[0][0]   │
├─────────────────────┼───────────────────┼────────────┼───────────────────┤
│ layer_normalizatio… │ (None, 200, 64)   │        128 │ add_2[0][0]       │
│ (LayerNormalizatio… │                   │            │                   │
├─────────────────────┼───────────────────┼────────────┼───────────────────┤
│ dense_2 (Dense)     │ (None, 200, 128)  │      8,320 │ layer_normalizat… │
├─────────────────────┼───────────────────┼────────────┼───────────────────┤
│ dense_3 (Dense)     │ (None, 200, 64)   │      8,256 │ dense_2[0][0]     │
├─────────────────────┼───────────────────┼────────────┼───────────────────┤
│ dropout_5 (Dropout) │ (None, 200, 64)   │          0 │ dense_3[0][0]     │
├─────────────────────┼───────────────────┼────────────┼───────────────────┤
│ add_3 (Add)         │ (None, 200, 64)   │          0 │ layer_normalizat… │
│                     │                   │            │ dropout_5[0][0]   │
├─────────────────────┼───────────────────┼────────────┼───────────────────┤
│ layer_normalizatio… │ (None, 200, 64)   │        128 │ add_3[0][0]       │
│ (LayerNormalizatio… │                   │            │                   │
├─────────────────────┼───────────────────┼────────────┼───────────────────┤
│ avg_pool            │ (None, 64)        │          0 │ layer_normalizat… │
│ (GlobalAveragePool… │                   │            │                   │
├─────────────────────┼───────────────────┼────────────┼───────────────────┤
│ dropout_6 (Dropout) │ (None, 64)        │          0 │ avg_pool[0][0]    │
├─────────────────────┼───────────────────┼────────────┼───────────────────┤
│ classifier_dense    │ (None, 32)        │      2,080 │ dropout_6[0][0]   │
│ (Dense)             │                   │            │                   │
├─────────────────────┼───────────────────┼────────────┼───────────────────┤
│ spam_prob (Dense)   │ (None, 1)         │         33 │ classifier_dense… │
└─────────────────────┴───────────────────┴────────────┴───────────────────┘
 Total params: 593,857 (2.27 MB)
 Trainable params: 593,857 (2.27 MB)
 Non-trainable params: 0 (0.00 B)

============================================================
  8. TRAIN MODEL
============================================================
Epoch 1/15

[1m  1/117[0m [37m━━━━━━━━━━━━━━━━━━━━[0m [1m13:30[0m 7s/step - accuracy: 0.6562 - auc: 0.4662 - loss: 0.7364 - precision: 0.4000 - recall: 0.4444
…
