…
To enable the following instructions: SSE3 SSE4.1 SSE4.2 AVX AVX2 AVX_VNNI FMA, in other operations, rebuild TensorFlow with the appropriate compiler flags.
WARNING:tensorflow:TensorFlow GPU support is not available on native Windows for TensorFlow >= 2.11. Even if CUDA/cuDNN are installed, GPU will not be used. Please use WSL2 or the TensorFlow-DirectML plugin.
Model: "sequential"
+--------------------------------------------------------------------------+
| Layer (type)                    | Output Shape           |       Param # |
|---------------------------------+------------------------+---------------|
| dense (Dense)                   | (None, 256)            |       261,376 |
|---------------------------------+------------------------+---------------|
| dropout (Dropout)               | (None, 256)            |             0 |
|---------------------------------+------------------------+---------------|
| dense_1 (Dense)                 | (None, 128)            |        32,896 |
|---------------------------------+------------------------+---------------|
| dropout_1 (Dropout)             | (None, 128)            |             0 |
|---------------------------------+------------------------+---------------|
| dense_2 (Dense)                 | (None, 64)             |         8,256 |
|---------------------------------+------------------------+---------------|
| dropout_2 (Dropout)             | (None, 64)             |             0 |
|---------------------------------+------------------------+---------------|
| dense_3 (Dense)                 | (None, 32)             |         2,080 |
|---------------------------------+------------------------+---------------|
| dense_4 (Dense)                 | (None, 1)              |            33 |
+--------------------------------------------------------------------------+
 Total params: 304,641 (1.16 MB)
 Trainable params: 304,641 (1.16 MB)
 Non-trainable params: 0 (0.00 B)


Training Model 1 (epochs=50, batch_size=64)...
Epoch 1/50

[1m   1/1350[0m [37m====================[0m [1m19:18[0m 859ms/step - accuracy: 0.4688 - loss: 0.7022
[1m  23/1350[0m [37m====================[0m [1m3s[0m 2ms/step - accuracy: 0.5856 - loss: 0.6774     
…
======================================================================

Behavior features (9): ['followers_count', 'friends_count', 'favourites_count', 'statuses_count', 'BotScore', 'cred', 'normalize_influence', 'replies', 'retweets']
StandardScaler fit on training data only.
  Training samples: 107,930
  Test samples:     26,268

Building Model 2 architecture...
Model: "sequential_1"
+--------------------------------------------------------------------------+
| Layer (type)                    | Output Shape           |       Param # |
|---------------------------------+------------------------+---------------|
| dense_5 (Dense)                 | (None, 64)             |           640 |
|---------------------------------+------------------------+---------------|
| dropout_3 (Dropout)             | (None, 64)             |             0 |
|---------------------------------+------------------------+---------------|
| dense_6 (Dense)                 | (None, 32)             |         2,080 |
|---------------------------------+------------------------+---------------|
| dropout_4 (Dropout)             | (None, 32)             |             0 |
|---------------------------------+------------------------+---------------|
| dense_7 (Dense)                 | (None, 16)             |           528 |
|---------------------------------+------------------------+---------------|
| dropout_5 (Dropout)             | (None, 16)             |             0 |
|---------------------------------+------------------------+---------------|
| dense_8 (Dense)                 | (None, 8)              |           136 |
|---------------------------------+------------------------+---------------|
| dense_9 (Dense)                 | (None, 1)              |             9 |
+--------------------------------------------------------------------------+
 Total params: 3,393 (13.25 KB)
 Trainable params: 3,393 (13.25 KB)
 Non-trainable params: 0 (0.00 B)


Training Model 2 (epochs=50, batch_size=64)...
Epoch 1/50

[1m   1/1350[0m [37m====================[0m [1m15:51[0m 706ms/step - accuracy: 0.4375 - loss: 0.7658
[1m  58/1350[0m [37m====================[0m [1m1s[0m 889us/step - accuracy: 0.4708 - loss: 0.7049   
…
